chapter11/hand-gesture-recognition/model/keypoint_classifier/keypoint_classifier.tflite (tflite, 6516 bytes, 6 tensors)

sequential_1/dense_5/BiasAdd/ReadVariableOp f4 [4]
-0.37500045 0.2969592 -0.038386866 -0.19515091
00000000: 0f00 c0be 090b 983e 8c3b 1dbd a4d5 47be

sequential_1/dense_4/BiasAdd/ReadVariableOp f4 [10]
-0.16586217 0.30300272 -0.08644179 0.31023252 0.21382919 -0.07122941 0.6106186 0.3012154
0.5287826 0.4583271
00000000: c6d7 29be 2c23 9b3e 6508 b1bd ccd6 9e3e
00000010: 0af6 5a3e bae0 91bd 8051 1c3f e838 9a3e
00000020: 4c5e 073f daa9 ea3e

sequential_1/dense_3/BiasAdd/ReadVariableOp f4 [20]
0.2618201 0.13095446 -0.3073055 -0.13161549 -0.18514878 0.33321646 -0.11870552 0.09356221
-0.11418833 0.016897265 -0.24542543 -0.34015974 0.31086558 -0.071712725 0.008103099 0.20161219
-0.08474369 0.22971015 0.17961927 -0.39279467
00000000: 490d 863e ed18 063e 2657 9dbe 36c6 06be
00000010: a497 3dbe 599b aa3e e11b f3bd 8b9d bf3d
00000020: 92db e9bd 226c 8a3c ce50 7bbe 6b29 aebe
00000030: c629 9f3e 1fde 92bd dcc2 043c 6d73 4e3e
00000040: 1a8e adbd 2339 6b3e 1dee 373e 621c c9be

sequential_1/dense_3/MatMul f4 [20, 42]
-0.07045561 -0.030853897 -0.100395486 0.6087305 0.05983632 0.24336591 -0.3488753 0.08394638
-0.6420536 0.030512758 0.3500009 -0.0024710842 0.17101389 0.054706857 0.002401079 -0.09449203
0.36770245 -0.18613309 0.30632108 -0.13058932 -0.2080634 -0.15655307 -0.16222914 -0.14725846
-0.15117322 -0.06391127 -0.09630762 -0.20449579 -0.1957059 0.046419375 -0.21539955 0.24013188
-0.16214505 0.3345506 -0.6318402 -0.15162167 -0.15102902 0.2585192 0.18409757 0.22778018
0.6046464 0.31267115 -0.27495348 0.009713203 -0.23786505 -0.25463492 -0.1767952 -0.40242577
-0.1064384 -0.31725797 0.02283668 -0.51078767 0.016887063 -0.19652535 0.1449403 -0.22163853
-0.055570103 0.02436102 -0.14111032 -0.08297534 -0.076571144 0.19702439 0.35105994 0.10470745
0.29333103 0.22012454 0.21862137 0.17720437 0.09137754 -0.102149785 0.36919057 0.31561738
-0.09809427 0.2280823 -0.20913295 0.20687923 0.03221024 0.12164387 0.49602324 0.38716927
0.013985785 0.119968794 -0.10376372 0.24030283 0.07179457 0.2795676 0.23220637 0.11431802
-0.08132517 0.058719676 0.12369594 0.07352926 0.86657417 0.32917506 -0.14606121 0.057547364
-0.017611919 0.051136952 -0.08969202 0.025761927 0.021716852 -0.01509153 -0.18056445 -0.06556536
-0.24172628 -0.022591917 -0.11031935 0.10723308 -0.0776882 0.03310426 0.26310953 0.062741965
0.122578785 0.0925683 0.23583086 -0.28705135 0.029640948 -0.71811897 0.29905316 0.13889463
-0.26273385 -0.26191002 -0.27147147 -0.32296038 -0.4064594 -0.63491553 -0.16480827 0.19067413
-0.11571132 0.392456 0.021892471 0.35661885 -0.1280669 0.3140779 0.29955128 0.043832764
0.026302695 -0.067501664 -0.07279538 0.10053757 0.031277835 -0.08375232 -0.13090345 -0.1889652
0.5798974 -0.16814592 0.033496007 -0.14930224 -0.09269247 -0.22067954 0.06689694 -0.31228855
-0.08362405 -0.38676664 -0.08211043 -0.30411136 -0.2554785 -0.03235158 -0.2393489 -0.3737397
-0.35588253 -0.4014863 -0.06589916 -0.37238094 -0.47086465 -0.46462983 0.072918534 -0.101746604
-0.07481064 0.21288902 -0.00320577 0.07520534 -0.03014387 0.011596134 0.4283225 0.06149959
0.49723428 0.14315741 -0.26966876 0.13506065 -0.26264822 0.08940057 -0.111115865 0.042660017
-0.12026015 0.009380474 0.040083274 0.18180571 -0.16716358 0.07520518 -0.114345275 0.08326369
0.07564742 -0.021020291 0.29605508 0.11950503 0.11688119 -0.09046075 0.010691396 -0.3514585
0.4635475 -0.30836862 0.21889149 -0.26560736 -0.043203562 -0.1948642 -0.2815594 -0.46078804
-0.6083648 -0.41004956 0.30990297 0.2633921 -0.056042362 -1.4257182 -0.11437593 -0.4011458
-0.1859878 -0.27487245 -0.10939632 -0.23489058 -0.6915994 -0.10209406 -0.1565894 0.0031454857
-0.097471274 0.24898352 -0.14652286 0.28453505 -0.7361625 0.012857393 -0.18153839 -0.0035758405
-0.044632554 0.027313434 0.031140652 0.024581281 -0.37185276 -0.018132243 0.08570539 -0.10795422
0.03239779 -0.06420784 -0.08501726 -0.06440815 0.58244747 -0.04396783 0.45657688 -0.16378531
0.43675506 -0.053439006 0.69459015 -0.21323518 0.13836956 -0.15843593 -0.07741026 1.1044191
00000000: 084b 90bd 50c1 fcbc 269c cdbd c3d5 1b3f
00000010: ee16 753d ea34 793e c99f b2be 14ec ab3d
00000020: a05d 24bf e4f5 f93c 5133 b33e eaf1 21bb
00000030: 441e 2f3e 4c14 603d 6c5b 1d3b 0a85 c1bd
00000040: 7f43 bc3e ac99 3ebe 1ed6 9c3e 35b9 05be
00000050: 920e 55be 734f 20be 651f 26be ecca 16be
00000060: 27cd 1abe e9e3 82bd ee3c c5bd 5867 51be
00000070: 2167 48be 3e22 3e3d b391 5cbe 22e5 753e
00000080: 5a09 26be 374a ab3e 48c0 21bf b642 1bbe
00000090: 5aa7 1abe a15c 843e 1384 3c3e 353f 693e
000000a0: 1bca 1a3f 6f16 a03e b4c6 8cbe 2024 1f3c
000000b0: e592 73be 825f 82be cd09 35be c00a cebe
000000c0: 60fc d9bd a36f a2be fd13 bb3c fbc2 02bf
000000d0: bd56 8a3c f13d 49be 3b6b 143e 36f5 62be
000000e0: 7a9d 63bd c390 c73c 397f 10be faee a9bd
000000f0: 55d1 9cbd c3c0 493e 21be b33e dc70 d63d
00000100: 7c2f 963e 5468 613e 48de 5f3e 1075 353e
00000110: 2624 bb3d e833 d1bd 8c06 bd3e 9a98 a13e
00000120: a6e5 c8bd 688e 693e f326 56be 26d8 533e
00000130: e2ee 033d 6c20 f93d c2f6 fd3e 0d3b c63e
00000140: a224 653c 33b2 f53d 1382 d4bd f211 763e
00000150: 0809 933d 7c23 8f3e 82c7 6d3e 911f ea3d
00000160: d08d a6bd 0b84 703d 4c54 fd3d 8296 963d
00000170: ced7 5d3f a289 a83e 1291 15be c9b6 6b3d
00000180: df46 90bc fb74 513d 73b0 b7bd ad0a d33c
00000190: 8ae7 b13c 7742 77bc e3e5 38be 2247 86bd
000001a0: 1887 77be af12 b9bc 1def e1bd 049d db3d
000001b0: fe1a 9fbd 5598 073d 4bb6 863e dc7e 803d
000001c0: 960a fb3d 7394 bd3d a57d 713e 65f8 92be
000001d0: 93d1 f23c a5d6 37bf 7f1d 993e 653a 0e3e
000001e0: 0d85 86be 1219 86be 4ffe 8abe 105b a5be
000001f0: 721b d0be d389 22bf 80c3 28be 1440 433e
00000200: 0efa ecbd feef c83e d757 b33c bf96 b63e
00000210: f823 03be d2ce a03e c95e 993e fc89 333d
00000220: c078 d73c 503e 8abd bf15 95bd a4e6 cd3d
00000230: 301d 003d 5686 abbd 8e0b 06be 1880 41be
00000240: 2874 143f 722e 2cbe 1c33 093d b0e2 18be
00000250: 8dd5 bdbd d1f9 61be 4301 893d 49e4 9fbe
00000260: 1643 abbd 4706 c6be 8329 a8bd 7cb4 9bbe
00000270: 14ce 82be 1783 04bd e117 75be cf5a bfbe
00000280: 3c36 b6be 9d8f cdbe 24f6 86bd b7a8 bebe
00000290: 2c15 f1be f6e3 edbe 5056 953d 8660 d0bd
000002a0: 5236 99bd 94ff 593e e517 52bb 4205 9a3d
000002b0: 47f0 f6bc b6fd 3d3c 164d db3e fee6 7b3d
000002c0: 7e95 fe3e db97 123e 0612 8abe 574d 0a3e
000002d0: d479 86be a517 b73d b790 e3bd 45bc 2e3d
000002e0: f44a f6bd 8fb0 193c 5c2e 243d 472b 3a3e
000002f0: ee2c 2bbe 2c05 9a3d db2d eabd 2786 aa3d
00000300: 09ed 9a3d bf32 acbc 8894 973e 0ebf f43d
00000310: 685f ef3d 7c43 b9bd f72a 2f3c 5ef2 b3be
00000320: 1956 ed3e 7ee2 9dbe 1725 603e b0fd 87be
00000330: 38f6 30bd 7b8a 47be 8e28 90be 69ec ebbe
00000340: ccbd 1bbf 04f2 d1be 9aab 9e3e 54db 863e
00000350: ad8c 65bd ef7d b6bf ed3d eabd fb62 cdbe
00000360: 9673 3ebe 15bc 8cbe 2e0b e0bd 2887 70be
00000370: a90c 31bf b116 d1bd f958 20be 7e24 4e3b
00000380: 059f c7bd 89f5 7e3e 170a 16be 94ae 913e
00000390: 2575 3cbf d1a7 523c 33e5 39be a658 6abb
000003a0: a0d0 36bd 6cc0 df3c ae1a ff3c af5e c93c
000003b0: 7c63 bebe 128a 94bc 4f86 af3d 1a17 ddbd
000003c0: 8cb3 043d 667f 83bd 871d aebd 6ce8 83bd
000003d0: 471b 153f 9c17 34bd 72c4 e93e 56b7 27be
000003e0: 5c9e df3e dce2 5abd a9d0 313f 535a 5abe
000003f0: c0b0 0d3e 073d 22be 4589 9ebd 9b5d 8d3f

sequential_1/dense_4/MatMul f4 [10, 20]
0.006497264 -0.22329271 0.18655635 0.2476888 0.5579871 -0.69824624 0.47621372 -0.331989
0.48591992 -0.40689576 0.3785696 -0.18676844 -0.15503094 -0.007708561 -0.28355262 0.04743009
0.18056294 -0.394228 -0.04438256 0.35236475 0.74006814 0.1924181 -0.37976992 -0.03406113
-0.2163637 0.094508536 0.30595568 -0.5997675 0.20097022 -0.09883377 -0.17291223 -0.20962958
0.4077918 0.03939329 -0.4019853 0.47622672 0.07798674 0.047988027 0.5471648 0.057205986
0.43588895 -0.5261998 0.011503508 0.07351139 0.0018843552 -0.31363332 0.41070768 -0.06713449
-0.46238863 -0.098635726 0.094205976 0.20280059 -0.16790386 -0.1986887 -0.2704726 -0.10880019
0.47467837 -0.416791 -0.16879344 0.69326293 0.43221042 -0.31935713 0.7642017 0.6679606
0.78277254 -0.08099749 0.17641468 -0.34836307 0.18297063 0.41861627 0.635646 0.22935562
-0.03704857 0.61189824 -0.3981779 -0.11936938 -0.11821903 0.112339914 0.49145153 0.7383881
-0.4219596 -0.6652184 0.35466817 0.44044116 0.7363418 0.43704095 -0.2565744 -0.3582803
-0.42772198 0.6248255 0.6254909 0.39832562 -0.68999314 0.35541025 -0.025791472 -0.41671634
-0.20306341 -0.6286697 -0.5914785 0.50511 0.5994421 -0.29006866 0.11884995 -0.00068613334
-0.030762492 -0.7275018 0.5166482 -0.30215898 0.92958474 -0.6014856 -0.013531803 0.36726287
0.0645518 0.4683433 -0.4303465 -0.21579285 0.3511729 -0.37617946 0.7365259 0.42561004
0.45800993 -0.3487313 0.4803438 0.47352365 0.28461468 -0.018902615 -0.080398984 -0.47607926
0.03970256 0.030368188 -0.1488809 -0.30763593 -0.015300867 0.64000124 -0.392318 0.18242933
-0.45958376 -0.029771363 0.91993856 0.06726369 0.36469004 -0.28026193 -0.37224975 0.4911206
-0.2136495 -0.12122889 0.066617556 -0.55397207 0.19087002 -0.47958893 -0.3089727 -0.5637126
0.052387375 0.28486502 -0.10125915 0.18634674 -0.23151694 0.14946699 0.61756414 0.47493145
1.0647286 -0.1458642 -0.2895272 0.40677303 -0.6252591 -0.13447209 -0.028695017 -0.4737056
-0.19496572 -0.1673455 -0.5950952 -0.41327876 0.07090812 0.46445218 -0.5539866 0.17000957
-0.17449671 -0.027995951 0.69589746 0.2737605 0.6469085 0.50380385 -0.32122356 0.2720777
-0.5368896 0.7715268 0.9169625 0.6524868 -0.5486371 -0.014324184 -0.4647865 -0.46235147
0.8922863 0.0571844 0.5389836 0.98143303 0.39782545 0.9337723 0.510315 -0.08915241
00000000: 00e7 d43b d8a6 64be a108 3f3e 22a2 7d3e
00000010: 3ed8 0e3f 44c0 32bf 49d2 f33e 76fa a9be
00000020: 7fca f83e a454 d0be e0d3 c13e 3a40 3fbe
00000030: 6ec0 1ebe 1998 fcbb cf2d 91be 0e46 423d
00000040: 7ee5 383e 41d8 c9be 7dca 35bd 2769 b43e
00000050: 1b75 3d3f 4009 453e 3471 c2be af83 0bbd
00000060: 728e 5dbe b18d c13d 39a6 9c3e 5d8a 19bf
00000070: 23cb 4d3e 5c69 cabd e70f 31be 23a9 56be
00000080: 16ca d03e dc5a 213d 04d1 cdbe fdd3 f33e
00000090: 83b7 9f3d 188f 443d fe12 0c3f d350 6a3d
000000a0: d62c df3e 08b5 06bf 3679 3c3c 248d 963d
000000b0: 78fc f63a 8c94 a0be 4748 d23e cf7d 89bd
000000c0: 34be ecbe 8701 cabd 10ef c03d f5aa 4f3e
000000d0: fdee 2bbe 0d75 4bbe 627b 8abe a2d2 debd
000000e0: 0b09 f33e a165 d5be 30d8 2cbe ae79 313f
000000f0: af4a dd3e c782 a3be b9a2 433f 77ff 2a3f
00000100: c863 483f 03e2 a5bd 0da6 343e a55c b2be
00000110: a75c 3b3e df54 d63e b2b9 223f 33dc 6a3e
00000120: 3ec0 17bd 5da5 1c3f f9dd cbbe ef77 f4bd
00000130: d21c f2bd 7812 e63d 899f fb3e 0107 3d3f
00000140: 170b d8be c14b 2abf 1197 b53e 8181 e13e
00000150: e580 3c3f d5c3 df3e b85d 83be 8470 b7be
00000160: 60fe dabe 90f4 1f3f 2c20 203f 56f1 cb3e
00000170: 64a3 30bf 55f8 b53e a348 d3bc d85b d5be
00000180: dbef 4fbe 7ff0 20bf 236b 17bf e44e 013f
00000190: 0a75 193f e183 94be 9a67 f33d a1dd 33ba
000001a0: 9f01 fcbc 8f3d 3abf 0e43 043f 95b4 9abe
000001b0: 44f9 6d3f f6fa 19bf 7fb4 5dbc e109 bc3e
000001c0: bc33 843d b1ca ef3e 6056 dcbe cdf8 5cbe
000001d0: efcc b33e 989a c0be f68c 3c3f 8fe9 d93e
000001e0: 4780 ea3e e98c b2be 9fef f53e b171 f23e
000001f0: 04b9 913e a8d9 9abc 39a8 a4bd a9c0 f3be
00000200: 279f 223d b5c6 f83c 3c74 18be 7582 9dbe
00000210: 7db0 7abc 1fd7 233f e8dd c8be c1ce 3a3e
00000220: 904e ebbe 13e3 f3bc 1881 6b3f 8cc1 893d
00000230: a7b8 ba3e 7e7e 8fbe 8597 bebe 2974 fb3e
00000240: efc6 5abe da46 f8bd c96e 883d 1dd1 0dbf
00000250: 6e73 433e ae8c f5be ab31 9ebe 784f 10bf
00000260: 2594 563d d4d9 913e f560 cfbd aed1 3e3e
00000270: c712 6dbe e00d 193e af18 1e3f 372a f33e
00000280: 0749 883f 6d5d 15be e93c 94be 8e44 d03e
00000290: fb10 20bf 0db3 09be d011 ebbc 8a89 f2be
000002a0: 18a5 47be 9e5c 2bbe 2958 18bf 4699 d3be
000002b0: 4738 913d adcc ed3e 11d2 0dbf fd16 2e3e
000002c0: 44af 32be c457 e5bc 5626 323f 562a 8c3e
000002d0: cc9b 253f 4af9 003f 6a77 a4be c54d 8b3e
000002e0: 9971 09bf c882 453f 0ebe 6a3f 6009 273f
000002f0: 7b73 0cbf fbaf 6abc 7ff8 edbe 55b9 ecbe
00000300: e06c 643f 303a 6a3d d4fa 093f 323f 7b3f
00000310: c7af cb3e b40b 6f3f 01a4 023f 8a95 b6bd

sequential_1/dense_5/MatMul f4 [4, 10]
0.6154899 -0.57834023 0.77487975 0.5836868 0.15565382 0.8903221 0.108626574 0.13950638
-0.01585387 -0.7161834 -0.5882396 0.2205847 -0.53005534 -1.1854104 -0.5927375 -0.6866338
-0.8513007 -0.40729514 -0.8846788 0.7335548 -0.57694775 -0.32897794 -0.30334592 0.57560503
0.9034378 -0.37610993 0.17601563 -0.009777711 -0.1733923 -0.5171062 -0.37165928 0.54361
0.1044833 0.23599222 -1.1197351 0.29503486 0.29912707 0.80073273 0.6788281 -0.10198075
00000000: bf90 1d3f 1b0e 14bf 855e 463f 806c 153f
00000010: b763 1f3e 26ec 633f 9c77 de3d c3da 0e3e
00000020: fadf 81bc cc57 37bf df96 16bf f5e0 613e
00000030: b5b1 07bf 87bb 97bf a5bd 17bf 3cc7 2fbf
00000040: d8ee 59bf fd88 d0be 4f7a 62bf 3fca 3b3f
00000050: d9b2 13bf cc6f a8be 2850 9bbe da5a 133f
00000060: b347 673f 7b91 c0be 713d 343e b132 20bc
00000070: c08d 31be 1261 04bf 204a bebe 062a 0b3f
00000080: 57fb d53d f2a7 713e 7b53 8fbf cf0e 973e
00000090: 2f27 993e d2fc 4c3f aec7 2d3f 49db d0bd
